model.pth (torch, 90380 bytes, 8 tensors)

conv1.weight f4 [10, 1, 5, 5]
00000000: a9a5 423e e219 e7bd 2d59 323e d95d 393e
00000010: 5e1c 3a3f 12ea 8d3e e069 123f 6383 713e
00000020: c4fa 083f 8a41 bb3d f1db 4fbf 2630 843e
00000030: 4c84 ce3e ea12 713e 46c8 7ebf ec04 99bf
00000040: acbb 26bf 083d 57bf 7abd a3bf 5cee 4bbf
00000050: 5601 05bd 621e e6be b263 aebe 4cb1 a63e
00000060: 936f 283f 1ee3 8dbe 3623 eebd cd55 933e
00000070: 0c53 27bd ad83 38bd 1f32 f3be 6016 7ebe
00000080: b861 c53d 2700 6ebb df90 723e 0c11 5bbf
00000090: 924e 8d3e 266d f33e 36b0 a83e eb5e 393f
000000a0: a94d 80bf e889 29bf 4e51 943d 2a3e fa3c
000000b0: a1a3 843e ada7 62be 8163 5ebf 1dfa 74bf
000000c0: 702e 66bf d48e 98bf 9834 30bd 8dc9 cb3e
000000d0: db75 f03e 25b4 013f fe58 333f c778 4abe
000000e0: d431 8bbe 3b45 323e 8d7b 52be ac07 11be
000000f0: 44e1 dfbd f64f 213f 4736 a33a 641b 1abd
00000100: 6dba f9be 3b66 af3d eff0 0c3f 8c9f c83d
00000110: 821a ea3d 9a34 0fbf 4862 423e 79f9 97bd
00000120: 829f 0fbf 7746 a7be 71b1 c1bf d1f8 a7bc
00000130: d533 b3be 7629 03bf b439 09bf 1cea 2f3f
00000140: c47b 0c3f e36e 293e 5b50 5cbf 8a4c 77bf
00000150: 5cd0 89be 8c74 513e e01c d43f 6a8a 4e3e
00000160: d417 c1be 6677 2c3f bb87 b6bd 7192 693e
00000170: 9747 4e3f cb8f 133e e47a cb3e 9450 97be
00000180: ab44 78be 11c0 663e 4e7b bf3e 71bf 5c3c
00000190: abd3 dabe 06ed a7bf 5fd1 afbe aec5 8dbc
000001a0: 594c 423e 2f38 d23c 0470 d9bb c702 6e3f
000001b0: 3c0b d43e d5e6 b4be 098c 873f ab0c 4b3f
000001c0: df51 3cbf b1fb 223e bfd2 0ebf 2cdc 9e3d
000001d0: ab39 6cbe d37a 22bf 87a7 063f 6398 87be
000001e0: 95be 3abf 19f7 dcbe 0ed3 babc 6909 00bd
000001f0: 34e7 83bd 73fc 093f 8a4b 5d3e bee0 be3d
00000200: c272 d43d 7d93 50be 56ad 8ebe d4ef 003c
00000210: 1448 d73e f509 f7bd 8c83 86bf cb6c b1be
00000220: cb2a 2abe ee87 a43f ec8b 04bf d429 15be
00000230: a4b4 17bf 83c7 80be fb55 6a3f 8d7b cf3e
00000240: 2856 2e3e b1b8 29bf 55f9 1abe 3a70 5e3e
00000250: 0052 f23e ab2e c53e df16 de3e 782c 27bf
00000260: 1779 6dbf a654 e7be afa2 b0be da16 8abe
00000270: 9c16 7dbf d2fd 1b3e 892c 0cbe 75ea 493f
00000280: 16bb 67bf 0248 80be 9c79 753d fee9 0fbc
00000290: 52ae 1c3f 1bcb 47bf f3f1 983e 4c6f 31bd
000002a0: 573d c83e 11cb 893c a086 04bf d7b0 d3bd
000002b0: 8b29 91be 1e9a 3e3e 4736 05be 5141 b7be
000002c0: 7322 c4be c265 15bd 201d 11be 5b0d 143f
000002d0: c1d1 5ebf 73b8 26bf 8983 88bf 33fa 81bf
000002e0: 94ec 52bf 59a1 13bf d1ca 8c3e c558 aabc
000002f0: 4255 1dbe 360e 1ebf f299 44be ad7c 19bd
00000300: 6806 833e f024 2dbe b97c e0bb 7b20 593e
00000310: 781a 09be e674 ed3d cf49 3e3f 0f9d 483f
00000320: 11d8 063f 4384 3f3e d111 02bf 6b7c 61be
00000330: 347b 44bf a866 7cbe 28d0 313f 4aa0 233e
00000340: dc4a 63be d132 45bf de85 20bf b1f6 4a3f
00000350: f64a 8fbd 47be 44be de61 15bf 0480 16be
00000360: 2a40 783f 8c8e 3a3e 9778 17bf 4689 08bf
00000370: 634b e33e d9f4 fc3c c8f0 14bf a6be 0cbf
00000380: 9b22 9fbd 2c32 a23d 8a92 023f 9ae1 6abc
00000390: bb29 983e 0a0e b13e 0cff 41bf 57e7 6a3c
000003a0: 20ca 6abe 0211 25bd cd8a f2bd a1bb 8fbf
000003b0: 93dd b2bf 7882 45bf d5e7 7ebe ccb6 fcbd
000003c0: c873 0b3f 23f0 dabb 180e 68bf bd65 62bf
000003d0: 6158 9dbf 968d 4b3f c69d 033f 9f98 86bd
000003e0: f235 95be ed4e 45bf
0.19008507 -0.11284234 0.1741683 0.18102206 0.72699535 0.27717644 0.571928 0.23585276
0.5350764 0.0914336 -0.8119498 0.25817984 0.4033531 0.23542371 -0.99524343 -1.1954627
-0.65130115 -0.840775 -1.2792199 -0.7966058 -0.032471977 -0.44945055 -0.34060436 0.32557142
0.6579525 -0.2771234 -0.1162781 0.28776398 -0.040850684 -0.04504745 -0.47499177 -0.24813223
0.09637779 -0.0036316009 0.23688076 -0.85572886 0.27599007 0.4754421 0.32946938 0.7241046
-1.00237 -0.66226053 0.0724207 0.03054722 0.2590609 -0.22134276 -0.8687058 -0.9569414
-0.8991461 -1.1918588 -0.043018907 0.3980221 0.46964917 0.50665504 0.70057666 -0.19772635
-0.27186453 0.17409222 -0.20554943 -0.14163083 -0.10931638 0.63012636 0.0012452089 -0.037623778
-0.48775044 0.08564421 0.55055135 0.09796056 0.11430837 -0.5593964 0.18982804 -0.0742063
-0.56102765 -0.32670948 -1.5132276 -0.020504387 -0.35000482 -0.5123514 -0.53603673 0.687166
0.5487635 0.16546206 -0.8606011 -0.96601164 -0.26916778 0.20454615 1.6571312 0.20169988
-0.37713492 0.6736969 -0.08912607 0.22809769 0.8057799 0.14410321 0.39742196 -0.29553664
-0.24244945 0.22534205 0.37398762 0.013473378 -0.42739615 -1.3119209 -0.34339425 -0.017306175
0.18974437 0.025661556 -0.0066356678 0.9297299 0.4141482 -0.3533236 1.058961 0.79316205
-0.73562425 0.15916325 -0.55790323 0.07756838 -0.23068874 -0.63468665 0.52599376 -0.2648345
-0.72947055 -0.4315727 -0.022805717 -0.031258974 -0.06440583 0.5390083 0.21610847 0.0932021
0.10373451 -0.20368762 -0.2786662 0.0078696795 0.4204718 -0.12062446 -1.0508895 -0.34653315
-0.16617887 1.2853982 -0.51776004 -0.14566737 -0.5926001 -0.25152215 0.91537446 0.4052395
0.17025054 -0.6629744 -0.15134175 0.21722499 0.47328186 0.38512167 0.43376824 -0.6530223
-0.92762893 -0.4518177 -0.34499118 -0.2697056 -0.98862624 0.15233544 -0.13688864 0.7887338
-0.90519845 -0.25054938 0.05993043 -0.008783815 0.6120349 -0.7804429 0.29872093 -0.04331903
0.391093 0.016820462 -0.5176792 -0.10336464 -0.28352007 0.18613479 -0.13008986 -0.3579202
-0.38307533 -0.036473997 -0.14171267 0.5783288 -0.8703881 -0.651252 -1.0665141 -1.015448
-0.8239224 -0.5766807 0.27498487 -0.020794282 -0.15364555 -0.61740434 -0.1919935 -0.037472416
0.25590825 -0.16908622 -0.0068508056 0.21203797 -0.13389003 0.11594562 0.7433137 0.7836465
0.5267344 0.18702798 -0.50808436 -0.22020118 -0.76750493 -0.24648535 0.69458246 0.15979114
-0.22196525 -0.77030665 -0.62704265 0.7928267 -0.069967195 -0.1921321 -0.5835246 -0.14697272
0.96972907 0.1821844 -0.5916838 -0.5333446 0.44393453 0.030878471 -0.58179903 -0.54978406
-0.07770272 0.07919726 0.5100485 -0.014336014 0.29719338 0.34581023 -0.75779796 0.014337382
-0.22928667 -0.040299423 -0.118428804 -1.1229135 -1.3973869 -0.77152205 -0.24893124 -0.12339553
0.54473543 -0.0066814586 -0.90646505 -0.8843649 -1.2292596 0.7951292 0.5141262 -0.06572079
-0.2914272 -0.77073556

conv1.bias f4 [10]
00000000: 09e7 1dbf e41b a5bd 0eb5 8abf 1c8f 07c0
00000010: 27e3 45be 8249 efbf 5b83 2fbd 8558 f3be
00000020: dab2 45bf 5745 0bbd
-0.61680657 -0.0806196 -1.0836504 -2.1181097 -0.19324933 -1.8694308 -0.04284988 -0.47528473
-0.7722603 -0.034001675

conv2.weight f4 [20, 10, 5, 5]
00000000: c38e 5ebe 6c87 38be f902 e73d 9ce0 4c3b
00000010: 0ae2 14bf e894 f53d ab55 bebe b728 7fbe
00000020: 3d18 11be cf7e 58bd 1599 0dbd f120 c7be
00000030: f127 bcbe 6c20 31be 0f98 94bb 569c 5fbd
00000040: e402 69be bd53 d5be 35b6 b9bd 6717 1d3e
00000050: f81d 03bf 2924 c6be 91ab 06bf b265 5cbe
00000060: f4ac 12be 5850 bebe 6c7e 193e f627 ce3d
00000070: 44a9 1fbd 6b20 b4bd 7569 023e f93a 4cbe
00000080: 3162 5bbe dbfc d1be c210 f4be 906a ca3c
00000090: 847c 93be e876 dcbe 7128 bfbe 2031 c2be
000000a0: aac9 24be 094d 95be 868d b0be 0cc8 c1be
000000b0: 3584 59be d303 c2be ff72 27bd 4d04 0bbe
000000c0: fbd2 e13d dc36 5a3e 2ffe 023e a0cc 2fbe
000000d0: adbc bf3d 991e 05bf 8b9b 273e f3ce 223e
000000e0: da95 4b3e f9d8 4dbe 465e 3ebb 38e8 ba3d
000000f0: 8869 113e d3b7 9abd 0123 553d 56bf 72bb
00000100: 19fa 973e a799 dcbd 8eb8 1c3d 6874 353e
00000110: 8441 0b3e 917d 03bd d65f b6be 80cb a33d
00000120: 70dc 41be 131e 04be cd9a 06bf 8822 24be
00000130: e902 cfbe c3d5 febe 669a b5be d7dd a8be
00000140: d61d 88be 2b07 c4be 300f bfbe c053 69be
00000150: 8a1f b1be 15a4 b7be ca9b e4bd 7bc5 603c
00000160: 7bd3 97be 424b 0ebf 1798 b4be 0208 16be
00000170: c0bc d9bd 6aa0 8abe eed8 9bbe a392 003e
00000180: da04 463d 41b2 083e 7f3c 8dbe 86d5 a13d
00000190: 2ab7 86be f3d5 fabd 57b4 cbbe 67a0 4ebe
000001a0: 3c4c 1d3d a85d fd3d 415e c0be d39b 3bbe
000001b0: 79d2 943c 0620 6e3e cda5 573d 5627 92be
000001c0: 9437 1dbe 2cde 9a3e 030f bf3d d198 703e
000001d0: ee82 4bbe b532 f4bc 9d2d d63d 70d6 b7bd
000001e0: e08c 9ebe 2959 40bd be80 0dbe e5ff ce3d
000001f0: 2779 25be b123 0a3e 6e2f 8fbc 1149 0dbc
00000200: 25bb 4bbe 156a 323d d170 36be 0563 a03d
00000210: 55dd 15be 7441 76bd 3a52 6abe 7773 ebbe
00000220: 3844 e8bd eb25 84bd ef87 14bd 422d fbbe
00000230: 509f febe 6286 26be 11b5 0dbe d0a9 9ebe
00000240: 2e86 6e3e 9b45 95be 3942 ea3c 1486 ba3d
00000250: c8df 2e3e 06a3 093e 5f23 a53d ea80 873e
00000260: ee04 933e 7189 5bbe 0839 51be 4d29 8bbd
00000270: ec2f 2f3e c136 8f3e dda6 1ebe 4bd7 913d
00000280: c6df fbbd 4b5c 633e f273 223e 09f1 193e
00000290: 0f34 1c3e 61e8 e23d ec76 4e3e 931b 0d3e
000002a0: 68d4 c23e e626 b4be 91f7 f4bd 1fa4 04bd
000002b0: 926d 013e ac31 a8bd 88d4 d0be 5097 86be
000002c0: 90c4 c53d 4716 443e 1b51 fe3d 4685 a9be
000002d0: 2ba7 2abe 4ae7 003e 68ed 77bd 71e1 9f3d
000002e0: 9846 603e c22a f73c 1817 08be dfee 143e
000002f0: bed9 d33e f35c f63d 9490 25be b6ea 3cbe
00000300: 47d1 bfbd 9478 ca3d 9aa2 633d 683f 00bf
00000310: 77d6 a9bd 5518 b7be ed8d 6b3d 5277 6d3d
00000320: 7f38 543e 3fc1 4b3e db94 bd3e cf2a a43d
00000330: 0b79 08bd a089 e63e e0e4 323e 92b0 213e
00000340: e2c9 073c 55a9 f33d 12a6 9b3e ce24 03be
00000350: 6b00 febd 0cf6 bdba 6046 9dbd 1b39 12be
00000360: d130 93bc 0d7e 96bd acd1 cebd 9a7c b13d
00000370: c34a 67be 267f 74bd 29de c1bb ee85 683e
00000380: 0e66 65bc d822 d43e e836 eebc 7289 9f3e
00000390: 6f7e af3e 4736 1bbf 5541 033f 97ea 49be
000003a0: 4664 9fbd c2fc 193e a44d 10bf ff35 d83d
000003b0: 94bd 95bc 3b57 78be 6bf0 abbe 483c 62be
000003c0: 6586 d8bc 47d1 de3d 534f ccbe 2c08 97be
000003d0: c142 a03e 5999 7a3b 675d aabe 992e e7be
000003e0: 100b c33c 9f35 6d3e 3969 863e 8e13 b73e
000003f0: 2e04 9abe b537 40bd cd87 9dbe 0cdd 2cbd
-0.21734147 -0.1802041 0.11279864 0.0031261807 -0.5815741 0.11991292 -0.37174734 -0.24917875
-0.14169402 -0.05285531 -0.03456982 -0.3889232 -0.36749223 -0.17297524 -0.0045347284 -0.054592453
-0.22755009 -0.4166545 -0.09067956 0.15340959 -0.51217604 -0.38699463 -0.5260554 -0.21523169
-0.14323789 -0.37170672 0.14989632 0.10066216 -0.038979784 -0.08795246 0.12735541 -0.19944371
-0.21424176 -0.41013226 -0.47669035 0.024709016 -0.28805935 -0.43059468 -0.37335542 -0.37928104
-0.16092554 -0.29160336 -0.34482974 -0.37847936 -0.21241839 -0.37893543 -0.040881153 -0.1357586
0.110265695 0.2130999 0.12792276 -0.17167902 0.09362159 -0.51999813 0.16367929 0.15899257
0.19881383 -0.201023 -0.002904789 0.091263235 0.14200413 -0.07554593 0.052035335 -0.0037040315
0.29682997 -0.10771494 0.038261943 0.17720187 0.13599211 -0.03210217 -0.35619992 0.07997799
-0.18931746 -0.12902097 -0.5257996 -0.16028798 -0.40431908 -0.49772462 -0.3546936 -0.3298175
-0.26585263 -0.3828672 -0.37316275 -0.22785854 -0.34594375 -0.35867372 -0.11162527 0.013718958
-0.29653534 -0.55583584 -0.35272285 -0.14651492 -0.10631704 -0.2707551 -0.30438942 0.12555937
0.04834447 0.13349248 -0.27585217 0.079020545 -0.26311618 -0.12247839 -0.39786026 -0.20178376
0.03840278 0.12371379 -0.3757191 -0.18321161 0.018166767 0.23254403 0.052648354 -0.28545636
-0.15353233 0.3024763 0.09329035 0.23495795 -0.19874164 -0.029809335 0.10457919 -0.089764476
-0.30966854 -0.04696003 -0.13818642 0.10107402 -0.16159497 0.13490178 -0.01747867 -0.008623377
-0.19895609 0.0435582 -0.17816474 0.078313865 -0.14635213 -0.060121015 -0.2288293 -0.4598653
-0.11341137 -0.06452545 -0.03626245 -0.49057966 -0.4973092 -0.162622 -0.13838603 -0.30988932
0.23293373 -0.29154667 0.02859603 0.091076046 0.17077553 0.13441095 0.08063387 0.2646554
0.287147 -0.21439148 -0.20431912 -0.06794987 0.17108124 0.2797146 -0.15493341 0.07121142
-0.12298541 0.22203176 0.15864542 0.15033354 0.15254234 0.11079479 0.20162553 0.1378005
0.38052678 -0.35185927 -0.11961282 -0.03238308 0.12639454 -0.08212599 -0.40787148 -0.26287317
0.09656632 0.19149123 0.124178134 -0.33109492 -0.16665332 0.1258823 -0.060529143 0.078066714
0.2190193 0.030171756 -0.1329006 0.14544247 0.41377062 0.120294474 -0.16168433 -0.1844891
-0.09366088 0.0988628 0.05557499 -0.5009675 -0.08292859 -0.3576075 0.057508398 0.05797512
0.20724677 0.19897936 0.3702763 0.080159776 -0.03331856 0.45026875 0.17470121 0.15790012
0.008287879 0.11897532 0.3040014 -0.12807009 -0.124024235 -0.0014492883 -0.076794386 -0.14279597
-0.017967613 -0.07348261 -0.100985855 0.08666344 -0.22587113 -0.05969157 -0.005916376 0.2270734
-0.0140013825 0.41432834 -0.029078916 0.3115955 0.3427615 -0.60629696 0.51271564 -0.19718395
-0.077827975 0.15037826 -0.5636847 0.10557174 -0.018278874 -0.24252026 -0.33581862 -0.22093308
-0.026431272 0.1087976 -0.3990427 -0.29498422 0.3130093 0.0038238375 -0.33274385 -0.4515274
0.023808986 0.23164986 0.26252154 0.35757107 -0.30081314 -0.046928126 -0.3076767 -0.042202994

conv2.bias f4 [20]
00000000: 831a ba3d f56d 47bf 5652 fcbb 5b7b be3e
00000010: 97ef 8dbe 1ded 1abf 42f6 4f3d 4d77 a3be
00000020: e2bc 403d feff 9cbd 4f42 04bb 8ff9 1cbf
00000030: 9960 443e 4741 633e f0c2 0abf e289 24bf
00000040: 310d 06be 2660 89be dd09 0cbf 9fe2 d3bd
0.09087088 -0.77902156 -0.007700245 0.37203488 -0.27721855 -0.60518056 0.05077196 -0.31926957
0.047055133 -0.07666014 -0.0020181125 -0.61318296 0.19177474 0.2219287 -0.542037 -0.6427289
-0.1309097 -0.26831168 -0.5470255 -0.10345959

fc1.weight f4 [50, 320]
00000000: df72 53bd 265f 023d 8110 00bd 7f4f 71bd
00000010: fdc3 83bd 66d7 aa3c d830 c63b 72a4 40be
00000020: 3682 05bf 783e 7cbd d51f dbbc a16e 2dbe
00000030: fd21 3abd c3fb 633e bf6a 293e b8ff c93d
00000040: d682 0e3d 204a a5bd caa4 e83d 84eb a23e
00000050: 7d5c 31bd 4595 dc3d e09c 593e ebd4 563e
00000060: 2dd2 2f3e 2c4b 3dbc 3150 7e3e c79e 8f3d
00000070: 86fc edbe 4b9f e5be f104 7b3d 1c0a c5bd
00000080: 886c c3bd 020a 463d b646 a7bc 3ca2 2dbd
00000090: 4e23 de3d 91a0 92be bb02 86be f902 9ebd
000000a0: 540d 4f3e f2e2 3fbd f682 353e 9ded babd
000000b0: bbc0 9abd 175a 1d3e 2842 3c3e 1ef9 033d
000000c0: 6775 0bbe 4417 04be 1a64 5a3b bfd3 063e
000000d0: fde1 7abd ff26 c7bd 30ae a53d dbff 04be
000000e0: 7338 d9be cd2f 88be 99a3 e53c b082 f53d
000000f0: f444 da3d 567e 8d3e 9559 863e 0b68 c83d
00000100: c727 39bd 2099 173d b513 973c dff0 25bd
00000110: 9022 bd3d 2d99 a5bd cab6 71be 5946 553d
00000120: e85a 3c3b 860a 5d3d 43e0 fbbd 39c7 583d
00000130: 9e3d 32bd 5d19 643e b502 4bbd 34ef a9be
00000140: 9196 f83d 2ce0 88bc 28d0 8f3b 3b91 5a3e
00000150: 7152 c73d 6451 663e ded0 17bd db53 eb3d
00000160: 730a 023d c996 8b3d 9601 11bd ca54 d7bd
00000170: bfd6 ff3d bbc5 df3c 8f33 2abe 7655 35be
00000180: 0760 d3bc 7a3d b1bd f0a1 09be 54a3 6ebd
00000190: 594c 2abe 863a 3f3e b91c c1bd b4dc 10bd
000001a0: 5d19 7dbe e402 8e3d 354a e7bc 88be a33d
000001b0: ccf3 53bd f97c 193e 980a cc3d 8057 2b3e
000001c0: edff 913e 2dff 9f3d 7b85 723d c56a 963e
000001d0: f7e0 d03b a4ac ae3d a884 b33d 2db2 713c
000001e0: 0da7 4abe ea11 c5bd ed9d b9bd b710 fb3c
000001f0: a3e6 94be b840 2cbe a092 dcbd 87bd c0bd
00000200: 00a9 f53d 7ccd 2dbe d806 6dbd b7ef 013d
00000210: 98b1 f8bd a224 cfbd 4f4c 99b9 9e1e 74be
00000220: 9015 52be adee e2bc d48a ef3d dd67 bb3d
00000230: eb81 3ebe 879d 7b3d 3ba4 d73d 6b29 b23d
00000240: 9fba df3d 2068 233d 7d6d e43d d50b 973c
00000250: 6768 d23c 2f02 c03d 4877 003e 1342 203e
00000260: a452 a6be 01f6 7fbe f999 3cbe 19ec ab3c
00000270: 3366 60be f5b6 22be f9e6 1e3e bb92 083e
00000280: f35c 193d ca1c a23d 2cee 3a3a bb69 90bd
00000290: 3728 b4bd a5fc 143d a619 20be e8b6 c8bb
000002a0: aac4 d53c 743e b3bd 5af8 a9bd e1a2 5bbe
000002b0: 883f a73d 62ad 223e 7e89 5c3e 823c f83d
000002c0: 39dd 8b3e a693 233b 529e 9b3d 4911 11be
000002d0: 5d00 e73c 44ae 5d3e a909 d3bd c5fa 883a
000002e0: c61a 543e 42ed 43be d91b 84be 9202 fabd
000002f0: c242 0a3e d2a8 4a3d 1669 a4be 24aa c2be
00000300: 29a5 953d d5b9 213e b0c4 b4bd 7af8 eb3b
00000310: 7c95 25be dc7e 92be 6953 8abd dcff 7b3d
00000320: 8adf 063e 709f 91bb 9a81 cabd 76cc 0c3d
00000330: 132a d1bd a663 31bd 3288 d93d e069 1f3e
00000340: f996 853d 59f1 1a3c 1f93 013e 5643 1abe
00000350: e10f 7bbe 2b56 7fbe df44 253e 9fb9 d0bc
00000360: bf88 7ebd 8123 233d 4a12 e43d 3293 bd3c
00000370: b695 6c3e 1d77 d6bd d8f5 3a3d 1283 533c
00000380: 03b1 6b3d 53ae 96bd ca58 de3a 2391 f5bc
00000390: 2869 d53d 01d9 36be ebea 79bd fa80 a73d
000003a0: 7e64 353d 5bc9 13be aee9 4cbd 75c6 b93d
000003b0: 5121 183e ac9c 66bd f5b8 01be adad 6dbe
000003c0: 727c cc3d 0e47 82bd c2a4 03bd 5af5 803d
000003d0: c746 88bd 7775 033e 0ee7 02be aa7a 91bd
000003e0: dc4c 38bd 6ad4 c6bd eb19 093e d7fb 02bd
000003f0: 3ef8 0d3e 8b3d 573e d364 943d d90a b73c
-0.05162322 0.031829022 -0.03126574 -0.058913704 -0.06433866 0.020854663 0.006048303 -0.18812731
-0.5215181 -0.061583012 -0.026748577 -0.16936733 -0.04544257 0.22264008 0.16544627 0.098632276
0.034792744 -0.08070779 0.11359556 0.3182031 -0.043301094 0.107706584 0.2125125 0.2097966
0.1717002 -0.011553567 0.24835278 0.07012706 -0.46481723 -0.44848093 0.06128401 -0.09621069
-0.09542185 0.048349388 -0.02041946 -0.042391047 0.108465776 -0.28638127 -0.26173958 -0.07715411
0.20219928 -0.04684729 0.17725739 -0.091273524 -0.07556292 0.15366398 0.18384612 0.03222
-0.13619004 -0.128995 0.0033323825 0.13166712 -0.061250675 -0.09724235 0.08089864 -0.12988226
-0.4242588 -0.2659897 0.028032111 0.11987817 0.10657683 0.2763545 0.2624022 0.097854696
-0.04520395 0.037011266 0.018442014 -0.040512916 0.09235108 -0.080858566 -0.23604885 0.052069042
0.0028740708 0.053965114 -0.12298634 0.05292437 -0.043515794 0.222753 -0.04956313 -0.3319031
0.12138093 -0.016708456 0.004388828 0.21344464 0.09732521 0.22491986 -0.037064426 0.114906035
0.031748246 0.06815869 -0.035401903 -0.10514219 0.124921314 0.027315965 -0.1662123 -0.17708382
-0.025802625 -0.08654304 -0.1344068 -0.05826123 -0.16630687 0.18674669 -0.094293065 -0.03536673
-0.24716707 0.06934145 -0.028233627 0.07995325 -0.051746175 0.1498908 0.09962958 0.16732597
0.28515568 0.07812343 0.05920933 0.29378334 0.006374474 0.08529022 0.087655365 0.014751953
-0.19790287 -0.096225575 -0.09063325 0.030647619 -0.29082212 -0.16821563 -0.10770154 -0.094111495
0.11995125 -0.16972917 -0.057867855 0.03172275 -0.12143248 -0.10114409 -0.00029239288 -0.23839805
-0.20516038 -0.0277017 0.11696401 0.0915067 -0.18604247 0.061429527 0.10529371 0.08699306
0.10924267 0.039894223 0.11153696 0.01843826 0.025684549 0.093754165 0.12545502 0.15650205
-0.32484925 -0.24996187 -0.18418111 0.020986604 -0.21913986 -0.15890105 0.15517797 0.13337223
0.03744216 0.07915647 0.0007130827 -0.070514165 -0.08796733 0.036373753 -0.15634784 -0.0061253197
0.026094753 -0.08752146 -0.082993224 -0.21448852 0.081664145 0.15886453 0.21536824 0.12120916
0.27317217 0.0024959831 0.075985566 -0.1416675 0.028198415 0.21648508 -0.10304577 0.0010450712
0.20713338 -0.19133475 -0.25802496 -0.122075215 0.13502029 0.049477406 -0.32111424 -0.38020432
0.073068924 0.15793546 -0.08826578 0.0072012516 -0.16170305 -0.2861241 -0.067541905 0.061523303
0.13171211 -0.0044440553 -0.09888001 0.034374677 -0.10213103 -0.043307923 0.1062168 0.15567732
0.065229364 0.009456956 0.12653778 -0.15064749 -0.24517776 -0.24935214 0.16139553 -0.025479136
-0.06214213 0.03982878 0.11136301 0.023141477 0.23103985 -0.10471938 0.04564461 0.012909668
0.05754186 -0.073574685 0.0016963717 -0.029976433 0.104204476 -0.17856218 -0.06101505 0.08178897
0.04428529 -0.1443228 -0.05002754 0.09071056 0.14856459 -0.056301758 -0.12668212 -0.23210783
0.099846736 -0.06361209 -0.032139547 0.06296797 -0.06654125 0.12837778 -0.12783453 -0.071034744
-0.044995174 -0.097084835 0.13388793 -0.031978454 0.13864228 0.2101957 0.07245793 0.02234404

fc1.bias f4 [50]
00000000: d288 ba3e d619 0d3f 0a22 373e 58e3 183e
00000010: 3f4b 16be aaa7 703e 8a8e 613f 79f2 5d3e
00000020: 39dc 00be 5254 d13e 17a2 f9bc 1b84 893d
00000030: ee30 7c3f 3d78 c13e 327c 18be a573 2fbe
00000040: d5ef 52be 8977 833e a0c1 233e f819 1f3f
00000050: 9893 143f 291a a03e 551b d9bd fb51 1b3f
00000060: 2d01 4c3e 079a 2b3f ad28 493f 0128 d33e
00000070: 42db 9c3e d4b5 373e 1586 d73e 0da1 603e
00000080: 193d c13d 6b17 793d 746c 0c3e f20b 1b3f
00000090: 6001 3e3d a516 153f 9768 3c3e ae1e 303e
000000a0: 2c68 483f b2cd 6b3d 4a66 9ebc b1a5 c63e
000000b0: d9e1 9b3d 9019 1c3f a672 4b3e 4d78 163e
000000c0: 9608 993d 442f 003c
0.3643251 0.5511755 0.17884079 0.14930475 -0.14677142 0.23501459 0.8810812 0.21674527
-0.12584008 0.40884644 -0.030472798 0.0671465 0.9851216 0.37787047 -0.14891127 -0.17133959
-0.20599301 0.25677136 0.15991831 0.62149 0.5803771 0.3126996 -0.10600916 0.6067197
0.19922324 0.670319 0.7857769 0.41241458 0.3063603 0.17940456 0.42094484 0.21936436
0.094354816 0.06081335 0.13713247 0.605651 0.04638803 0.5823768 0.18399273 0.17199203
0.78283954 0.057569213 -0.019335885 0.38798288 0.076114364 0.60976505 0.19867954 0.14694329
0.07472341 0.007823769

fc2.weight f4 [10, 50]
00000000: a2ac 38bf 0a67 c4bc b530 e9be 3dcd 14be
00000010: 628a babe 13a3 343e 7635 cbbd e014 30be
00000020: 1cd9 f7be b53e d3be 14c7 c73e 205a e6bd
00000030: a43c 9a3e 6322 103f 7e7b 38be a06e abbe
00000040: 7f9c 7ebe 815c eabe 8f09 aebe d0c9 babe
00000050: 71b3 59be 7d8b 1dbf 6040 963e d2cb a6be
00000060: 5944 b93e 4350 9fbe 4cfb 45bd a123 87be
00000070: 5094 be3e 0bf4 683e bf84 85be 5733 b43e
00000080: 1827 3bbe 8bb5 41be 814c e7bc 0fa7 91be
00000090: 8ba0 cbbe 240e ccbe 2649 953e 6012 cbbe
000000a0: 9295 eabe 98c3 ed3e b730 63bd 7fec f5be
000000b0: 3d30 18bf cb3e a4be 9746 b53e 8f3e bd3e
000000c0: 6e36 2fbe 8d71 ae3e 9e6b debd 44df 8e3e
000000d0: 1870 2fbe 22b6 a13e 1b09 81be 853d c9be
000000e0: 8bbf cb3e 8572 babc 4d5a 2bbe 42a8 a83e
000000f0: d831 12bf 0b24 f0be c233 ba3e fe62 c4be
00000100: 119d dcbe 5a07 c8be 9dc7 09bf 87d2 953e
00000110: ee85 f2ba 2c94 e33e 4a37 8a3e 50fe 98be
00000120: b6ab 2fbf 6687 d13e 320f 0cbf 0cba b03e
00000130: f1a8 c03e 1e83 a53e 9b91 ddbe 3aa9 fcbe
00000140: 37d3 b83e 88bf bcbe af7a 48be 7af6 97be
00000150: 1e6d c2be 230f 853e 4a66 3abe ecee ac3e
00000160: 302e bcbe 2b8e 01be ad95 b53e 8efc a7be
00000170: b5ab 47be 3aab 9b3e d2e5 40bd 199e b93e
00000180: 5902 73be adc9 71be 797f febc 9883 f6be
00000190: f9c9 4cbe 4f22 96be 7773 493e d531 44bd
000001a0: a00e c43e 55a9 603e d95d 103e d6ce 7e3e
000001b0: e52e 933e b1a4 ab3e 72b1 35bd 9ddf 123e
000001c0: c672 6abe ccba 35be fd1c a43c 31c2 64be
000001d0: 7120 d4bd b099 ae3e 1f22 45be b83c 4abe
000001e0: 4f13 1fbe 4ded 2cbe 6d5f 2dbe 600b db3e
000001f0: 1b15 7ebe 0c6e 3fbe 03fc 6dbd 0815 3fbe
00000200: a7da fbbd f989 e13d a67a d33e 8b80 47be
00000210: 55d4 afbd 7f7f 71bd 7f82 8f3e b381 0dbe
00000220: 2131 b63e 86e8 d53e 1c69 febe 6904 97bc
00000230: 8239 0bbe c61f b03e 878b bbbe 7060 a1bd
00000240: 3861 17be 8ca8 6bbd b862 7a3e 9064 b23e
00000250: 5d3c b93e 872a 7a3e 1b72 f63e fab5 34be
00000260: 0c84 c43e a85c 1dbe 8ffe 483e 9c7a 833d
00000270: 0101 cebe 4d0e ac3e 3ca7 983d 4047 2ebe
00000280: 6073 98be f61b aabe 78a8 95be 4b3c 1bbd
00000290: 2d9e 98bd 4a89 a43e 19a0 9a3e 0263 b83e
000002a0: 30ce a93e 6eda a8be ec57 afbe ed72 65be
000002b0: 1b3e c03e 9a2c eebc 13e7 84bc 3366 abbc
000002c0: e66c cbbe 16f7 953e d737 0cbe 8443 223e
000002d0: ea2a aa3e d451 cb3e 6d64 c53e 7051 36be
000002e0: d19b babd 78ae b4be e0bc 9a3e 9ad5 bb3e
000002f0: 2290 1fbe 2f47 d23e aed3 54be fc48 c0bc
00000300: e79e b1bd cb5f 2b3e 0205 2f3d ad9a 073f
00000310: 1262 51be e492 b4bd cf56 28bd e0a9 953e
00000320: ec0b 863e bafe f9bd 6510 ba3e 2b64 313c
00000330: 0f01 0fbe 7ec7 aabe 2f85 f33e 32fb 943e
00000340: ca4e c33e b02c 813e 0009 943e a4b8 003f
00000350: 6e5a 89be f7b3 97bd fccd 973c 60d9 47be
00000360: f94e 92bd 2696 81be d44d cb3e 6733 ea3e
00000370: 4998 993e a4aa dd3e 90a3 00bf c462 d6ba
00000380: c3c0 84be c270 883e b537 ba3e 4d2c d0bd
00000390: 1216 a0bd 14ea 8cbe dbbb d0be 456f d0be
000003a0: 4d31 acbe 52df 113f 9faa a73e e5bc b43e
000003b0: 9bcd 79be c042 36be 24a1 9bbd dd6a 743d
000003c0: c9d2 b33e 261d aabd fbf3 0dbe bc23 99bd
000003d0: b292 ee3e 343b 97be 1d3c 9e3e c672 213e
000003e0: 3045 94bc 90ba bfbe 1805 d93e 3d83 a13e
000003f0: 43f7 9cbe fe64 93be 81f3 ba3d 2be3 8ebe
-0.72138417 -0.023974914 -0.45544973 -0.14531417 -0.36433703 0.17640333 -0.09922306 -0.17195463
-0.4840783 -0.4125878 0.39019072 -0.11247659 0.3012439 0.5630247 -0.18015859 -0.33482838
-0.24864386 -0.457737 -0.33991668 -0.36482096 -0.21259858 -0.6154097 0.2934599 -0.32577378
0.36184958 -0.31115922 -0.04833536 -0.2639437 0.37222528 0.22749345 -0.2607784 0.3519542
-0.18276632 -0.1891691 -0.028234722 -0.28447768 -0.39770922 -0.39854538 0.2915737 -0.39662457
-0.45817238 0.4643829 -0.05546638 -0.48031995 -0.59448606 -0.32079157 0.35405418 0.3696179
-0.17110607 0.34071007 -0.1086037 0.27904713 -0.17132604 0.3158427 -0.2520226 -0.39304748
0.39794573 -0.022759685 -0.16733666 0.3294087 -0.57107306 -0.469025 0.36367613 -0.38356775
-0.43088582 -0.3906811 -0.5382021 0.29262182 -0.0018503049 0.44448984 0.26995307 -0.29881525
-0.68621385 0.40923613 -0.54710686 0.34516943 0.37628892 0.32326597 -0.4327515 -0.4934786
0.36098644 -0.36864877 -0.1957805 -0.29680234 -0.37973875 0.2598811 -0.18203083 0.33776033
-0.36753988 -0.12651889 0.35465756 -0.3280987 -0.19499095 0.30404073 -0.047094174 0.3625343
-0.23731364 -0.2361209 -0.031066643 -0.48147273 -0.19998921 -0.2932305 0.19672953 -0.047899086
0.38292408 0.21939595 0.140983 0.24883589 0.28746715 0.33524087 -0.04435868 0.14343114
-0.22895345 -0.17747039 0.020033354 -0.22339703 -0.1035775 0.3410163 -0.19251297 -0.19749725
-0.1553471 -0.16887398 -0.16930933 0.42782116 -0.24812739 -0.18694323 -0.058101665 -0.18660367
-0.12297564 0.11012644 0.4130451 -0.19482629 -0.08585421 -0.05895948 0.28029248 -0.13819008
0.35584357 0.41778964 -0.49689567 -0.01843472 -0.13596156 0.3439924 -0.36629888 -0.07879722
-0.1478318 -0.057533786 0.2445172 0.34842348 0.36178866 0.24430285 0.4813393 -0.17647544
0.38381994 -0.15367377 0.19628356 0.0641987 -0.4023514 0.3360466 0.074537724 -0.17019367
-0.29775524 -0.33224458 -0.29230094 -0.037899297 -0.07452045 0.32135993 0.3020027 0.36013037
0.3316512 -0.3297915 -0.34246767 -0.22407122 0.37547383 -0.029074002 -0.016223466 -0.020922756
-0.3973152 0.29290074 -0.13693176 0.15846068 0.33235866 0.39710867 0.3855318 -0.17804503
-0.09111751 -0.3528936 0.30222225 0.36686403 -0.15582326 0.41069934 -0.20783874 -0.023472302
-0.08672886 0.16735761 0.042729385 0.5297039 -0.20447567 -0.0881708 -0.041098412 0.29231167
0.2618097 -0.12206788 0.36340633 0.010827105 -0.13965248 -0.33355325 0.4756255 0.29097897
0.3814605 0.25229406 0.28913116 0.5028174 -0.26826805 -0.074073724 0.018530838 -0.19516516
-0.07143969 -0.25309867 0.39707816 0.45742342 0.29998997 0.4329425 -0.50249577 -0.0016356339
-0.25928316 0.26648527 0.36370626 -0.101647 -0.078167096 -0.27522337 -0.40768322 -0.40709892
-0.33631364 0.56981385 0.3274736 0.35300365 -0.24394839 -0.177989 -0.075990945 0.059672225
0.35121754 -0.08306341 -0.13862602 -0.07477519 0.46596295 -0.29537356 0.30905238 0.15766439
-0.018099397 -0.37447023 0.423867 0.3154544 -0.30657396 -0.28787988 0.09128476 -0.2790769

fc2.bias f4 [10]
00000000: c1c2 9b3f 1ed0 3d3f c641 543e dbb7 46bf
00000010: ddb1 48bf 3e9e 85be 4292 77be 7795 7bbd
00000020: b2f8 083f 9b0c 01bf
1.2168809 0.74145687 0.20728216 -0.7762429 -0.783964 -0.26097292 -0.24176887 -0.061421838
0.5350448 -0.5040986
